Project/Assets/ML-Agents/Examples/PushBlock/TFModels/PushBlock_pb03.onnx (onnx, 489093 bytes, 6 tensors)

network_body._body_endoder.seq_layers.0.weight f4 [256, 210]
00000000: 460a b23d 4cd3 8abd f122 1d3d 3f48 36bc
00000010: d117 273d e649 ac3c 5984 923d 9cf5 1cbd
00000020: 7e5c 433b 5d25 313c ead4 293d cbc4 8dbd
00000030: 34a4 92bd 2be7 2bbc 8985 dfbc 4239 42bd
00000040: 1c4a bb3d 73a4 2b3e 52c4 023e 039c 6abd
00000050: 994e cb3c 0ab6 d9bb eede 653d 86ac 333e
00000060: 692b 19bd 4b60 2e3c 7999 183d 9dc2 c23d
00000070: 4de7 5b3c 4df1 96bd e51f e23d 3e1a 59bd
00000080: a305 783e 0792 89bd 9659 a93d 9912 0cbe
00000090: 23d6 09bb 2ee3 2c3e 2fcc 973d 3fe9 46bd
000000a0: b37a 8e3c 3d8a 153e 2d7d 92bd b156 373d
000000b0: e2ea 83bb ccb9 a6bd f3cf 213d d073 2c3e
000000c0: dcd0 e8bd e17a 8fbd a2a3 8bbd f719 533d
000000d0: a9cd b33c 676c 813c 4086 723d aeb9 b53d
000000e0: 1f42 993d e429 4bbd b60a b63d 55a3 113e
000000f0: b56a 89bd 9d09 023c 8769 1dbe b06d b03c
00000100: 4c4b 043d 2e80 f3bd 1449 35bb a015 db3d
00000110: 9abb 8d3d cd4d c03c c69f 5dbd 3a54 453d
00000120: a313 8c3d 1658 9fbd 051a 9f3d 9c5f 083d
00000130: 8a9a 083d 86df 1abd 0213 493d 291d dabb
00000140: bf64 23be ecba aeba b821 223d d8ed d7bd
00000150: bcff 053d a06e 0fbd c8d1 c2bd 2f14 82bd
00000160: 0eee adbd ceec f7bc ecb1 eb3b 39a0 24bd
00000170: e249 aebc 6eb4 883d 7ba7 973c bfb2 6abd
00000180: 479f 84be d707 9cbb cec3 a73d 0b27 b83d
00000190: e05d 3fbd 8e23 da3b 0f9c 26bd fcc1 e0bc
000001a0: d6d0 c4bc af42 dcbd f426 69bd 37c1 81bc
000001b0: 0cad df3c f312 56bd 6a53 113e 5165 bbbd
000001c0: cf35 3a3d 828d db3c 8657 e43d b2ff 6a3c
000001d0: 89ae 0dbd 3d5c 32bc 5808 323d d2e5 853c
000001e0: 8036 c83d 3351 a8bd 9450 a63d 8cbc a0bd
000001f0: 813d 1a3e 9297 3bbe c63b c73c fb41 a23d
00000200: fc15 09be 9a28 9fbd 4a10 583e acc9 38bd
00000210: ca64 97bd c4e3 d03d 199e 0b3e 2d8d 08bc
00000220: d304 013e 60eb 71bd ddea 78bc 0472 d93c
00000230: a1f8 583d 8a20 1cbe eb9c a2bd 0ee5 153d
00000240: a5d1 8c3d 6788 2fbe 3568 32bb 9865 873d
00000250: 1661 04be f069 e13d 38d9 42bd c3d2 193e
00000260: a096 493d d1c1 16be 1eac 49bd de31 77bc
00000270: ccd2 cf3d c9c5 453e 0f09 eebc 452f fe3c
00000280: f6c6 4abd 581a 963d 1a37 f1bd f854 a1bd
00000290: 4a60 92bc c384 443e dd6c c4bd 33b6 193e
000002a0: ebc9 8e3d 6446 753d f3c9 15be 09df 55bd
000002b0: 706b 4a3e 9bb8 0abd 3f57 f73c 387f cebd
000002c0: e326 613e b18a f43d 59e0 b3ba 3a6d 423e
000002d0: c448 0bbe 0664 59bc dae7 053b 9388 b6bc
000002e0: 1bce b93d 69f3 d1bc b6b7 0fbe c4bf c43d
000002f0: 9c24 23bb 8f3c eabd 0673 1abe bc49 ce3c
00000300: e602 50bd b354 023e 4b22 1a3e afeb 22bd
00000310: ed75 133e 5427 88bd 30e2 c2bd 1fbb d1bc
00000320: a35d 433e 4a2c 66bd 579b 58bd 949b be3d
00000330: d0ba ad3d 8101 dcbd 4afa bbbd eb62 cf3b
00000340: 1a1b 82ba 6146 a53c 60a5 2dbc b41c 583d
00000350: 7590 223d 7e54 a6bc 8df8 c6bc 7b87 c03c
00000360: 22e4 153e 57fd 4abd be57 553d 979f 18bc
00000370: 4447 5d3b 9457 2d3e 1ac5 17bd 045b 8f3d
00000380: 97ca dd3c db2f 043e 8375 113e f476 4abd
00000390: 238e 1e3d d567 d3bc e510 183c 3010 1fbd
000003a0: a206 a03d fef5 3d3e 2dfd 2ebd f6a0 863b
000003b0: 3652 83bd 10fe 98bd 62fd 7a3d accc d83d
000003c0: 3aea 34bd c787 a8bd 4f83 67be 4434 063e
000003d0: 4500 8ebd 4027 8c3d 82ab 6c3d 3899 853a
000003e0: 001c 2c3d b517 fe3c 385b 5e3d b04a 28be
000003f0: 410b a6bd 8b21 ca3c 5d64 013d 4bf8 22be
0.08693366 -0.06778583 0.0383634 -0.011125623 0.040794197 0.021031331 0.071541496 -0.03832017
0.0029809768 0.010812131 0.041462816 -0.06922301 -0.071602255 -0.010492126 -0.027285354 -0.047417887
0.091449946 0.16761951 0.12770203 -0.05727769 0.024817752 -0.006644015 0.056120805 0.17546281
-0.037394915 0.010643075 0.037255738 0.09509776 0.013421846 -0.07370243 0.1104124 -0.053003542
0.242209 -0.06717306 0.0826904 -0.1367897 -0.0021032176 0.16883537 0.07411992 -0.048562285
0.017392492 0.14603515 -0.07152782 0.04476041 -0.004025803 -0.08140907 0.039504956 0.16841054
-0.11367962 -0.07005859 -0.0681832 0.051538434 0.021948652 0.01579876 0.059210062 0.08873306
0.07483315 -0.049600497 0.08888762 0.14222462 -0.06709806 0.007936862 -0.15372287 0.021536678
0.03229837 -0.11889683 -0.0027661966 0.10697484 0.06920548 0.023474598 -0.05410745 0.048176028
0.06839683 -0.07780473 0.07768635 0.033294305 0.033350505 -0.037810825 0.049090393 -0.006656308
-0.159564 -0.0013330854 0.039582938 -0.10543412 0.03271459 -0.03501761 -0.09512669 -0.06351506
-0.08492671 -0.030264284 0.007192841 -0.040191863 -0.021275464 0.06675039 0.018512478 -0.05729937
-0.2590277 -0.004761677 0.08191644 0.08991822 -0.046720386 0.0066570705 -0.040676173 -0.027436249
-0.024025362 -0.107549064 -0.056921914 -0.015839202 0.027304195 -0.052264165 0.14191976 -0.09150184
0.045461472 0.026800875 0.11149506 0.014343189 -0.034590278 -0.010886249 0.04346499 0.016344938
0.0977602 -0.082186125 0.08120838 -0.078484625 0.15062524 -0.18319538 0.024320494 0.07922741
-0.13387293 -0.07771416 0.21099964 -0.045114204 -0.07392271 0.10199693 0.13634528 -0.00833444
0.12599497 -0.05906236 -0.0151927145 0.026543625 0.052971486 -0.15246788 -0.07940086 0.036595397
0.06875924 -0.17141877 -0.0027222757 0.06611174 -0.1292766 0.11006534 -0.047570437 0.15021805
0.049215913 -0.14722373 -0.04923641 -0.015087573 0.10147628 0.1931373 -0.029057054 0.0310284
-0.04950615 0.073292434 -0.11778088 -0.07877535 -0.01786818 0.1919127 -0.095910765 0.1501091
0.069721065 0.059881583 -0.14627819 -0.052214656 0.19767547 -0.03386746 0.03019297 -0.10082859
0.2198749 0.11940516 -0.0013723477 0.18986979 -0.13601977 -0.013268476 0.0020432384 -0.02228192
0.090725146 -0.025628762 -0.14034924 0.09606889 -0.0024893647 -0.11437332 -0.1508294 0.025181644
-0.050784014 0.12727623 0.15052144 -0.039775547 0.14400454 -0.06648126 -0.09515798 -0.025601922
0.19078688 -0.05619458 -0.05288252 0.09307018 0.08482897 -0.10742474 -0.09178598 0.0063289306
-0.000992629 0.02017516 -0.0105985105 0.05276175 0.039688546 -0.02030396 -0.02428844 0.023502102
0.14637807 -0.04955801 0.05208563 -0.009315393 0.0033764401 0.1692794 -0.037053205 0.06999782
0.027074141 0.1290888 0.14204983 -0.04942985 0.03870977 -0.025806347 0.009281372 -0.038833797
0.07813765 0.1855087 -0.042721916 0.0041085435 -0.06412165 -0.074703336 0.0612768 0.10585913
-0.04416869 -0.082290225 -0.22608684 0.13105875 -0.06933645 0.06843424 0.05778075 0.0010192757
0.04201889 0.031017164 0.05428621 -0.16434741 -0.08107615 0.024674198 0.031589855 -0.15915029

network_body._body_endoder.seq_layers.0.bias f4 [256]
00000000: b935 aa3c e9a3 303c 4c45 9abc b630 743b
00000010: 0223 39bc 36a1 cc3b ead5 99b9 9b20 953b
00000020: a7d9 903c ab56 0c3c caac ca3b 0157 053c
00000030: febb 133d 1586 a53b 8c97 19bc f9e5 063c
00000040: be72 bbbb 6957 25bb 9fca 0e3c 22d5 6c3c
00000050: 2243 03bb 9b50 86bc 1afe 4b3c 8ac1 2a3c
00000060: 83c4 a23b 60b2 813c e196 8f3c c6b6 1e3c
00000070: 6d2f 803b 15ff edbb 02ec 2f3a c8e3 7d3c
00000080: f2a9 50b9 b8c7 f6ba 003b f5bb b211 e73c
00000090: 513d bd3a 9a30 03bd 5e80 01bc 1486 c63c
000000a0: 59e3 6a3c 8540 c73c f29d ea3c 43ef 173c
000000b0: 77c7 883c 321e bbbb 6bdf 093c dd02 0cba
000000c0: 4f15 953b cecc 2a3d 8391 883a 32cb e03c
000000d0: 4778 453c 66ac 5d3b 5f31 c93c 3dcb 9abc
000000e0: 2383 333c bb34 433c 3c89 f43b ed27 473c
000000f0: b778 f6ba 1516 013c 6173 f03b d0ac c33c
00000100: e3f6 393b fc49 613c 3ce8 b3bb 1dcc 263c
00000110: dceb 113c ba60 bf3a e109 b03b 8f89 c93a
00000120: d8e2 b03c c0aa 95bd 4446 33bc cf63 893a
00000130: d453 c2bb 3d37 95bc fde1 9c3b b27f ad3a
00000140: 646a 573c 5691 723c cbc4 143c 959b acba
00000150: 2a42 623c 11e1 463b 823c b7bc 3ef7 3d3c
00000160: 5491 033d 2923 d53b 9d34 a9bb 0f26 903a
00000170: b18d e6bb 72a0 0d3c 4e05 313c 43af c139
00000180: b4e9 043c aad7 69bc 3f5c 463c 0a60 1e3c
00000190: a3d1 08bc 7f12 77bc 317e ccbc f4f0 25bb
000001a0: 8c8b 44bb 9fae 42bc af60 993c 1d5b e1b9
000001b0: a08b 103c 3723 203c cf7f 103d 5a86 a5bb
000001c0: 17e4 4637 5b72 df3c 3823 63bc 48a7 be3c
000001d0: 704c 75bc 3797 98bb 3dc7 143c 84c9 8e3c
000001e0: 190e 1abc 1306 903c 0e2f e43b fdc7 023a
000001f0: 3a45 30bb 9bf4 953b 97d9 843c 9f44 3e3c
00000200: 18a6 c83c b4e6 b53b 253b 9b3a 5e4e 063d
00000210: c537 2539 8412 df3a 8499 6c3c e685 903b
00000220: b9eb c33b 8923 d0bc dd50 5c3c af2f 66bb
00000230: 6e07 893c 91d7 aebb 6abf 843c 64a8 bfbc
00000240: 3f27 2dbb 5251 ae3a 7236 5a3c 6b8e 943c
00000250: f3e1 903c 8af8 7c3b cea9 023c 19f4 903b
00000260: 43f9 023c 5878 e13c 1abd a73c c519 993c
00000270: 6f2e 41bb 451c 6e3c 277f f03a bfb9 17ba
00000280: e888 943b e88c ab3a d7f9 a5ba faf2 21bc
00000290: 695b df3b a1e8 30bb 0dcd 733b b2a5 943b
000002a0: f271 b13c b24b c73a b64f 8d3c 59c1 8cbb
000002b0: 1b03 c6bc ffa2 503b 5eed 7a3c d5d3 5ebb
000002c0: 3f3a bb3c ae7e 683c ecfa cb3c 2161 793b
000002d0: b457 d0bb 37b3 6bba 9d0f 4e3b eed4 213c
000002e0: e7d2 32bc 679f 54bb 01b6 b53c 40a5 8bbc
000002f0: 9cfc 3c3c 6ee8 bfbc 32a8 013c 969c 893c
00000300: 9717 7c3c 8a60 fb3c e0d9 3d3c 29e7 213c
00000310: 6feb 5d3c 31d5 c6bb a044 cf3b bd43 4c3c
00000320: 4ad1 c4bb dd1d 793b f509 d33c 3e6f c53c
00000330: 9a3e b93b df1c 263c 7485 4fb7 f1e1 033c
00000340: 3211 d03c 4dbf 7f3c c66d 8e3c c518 a23b
00000350: ca8b ad3c d565 df3c f818 3cbb 6144 c6ba
00000360: b827 6e3a ec08 353c 77e3 cc3c 8ceb a9bc
00000370: f6d7 3f3c c2ca 5c3c 73ff f0b9 4a2a ffbb
00000380: 1e7e cb3c 69f2 b13a bddb 8a3c 999a b53c
00000390: 10d2 813b 19c0 883c 6f25 013c 151d 833c
000003a0: 7593 b53c 130d ccbb e8d1 43bc 7ed8 a639
000003b0: 5b9c a43c 925a ccba 6a06 3b3c e968 aebc
000003c0: 0d10 713c 99b4 10bc 7892 46bc 1bfe 453c
000003d0: 2a45 18bb 4624 0dbc 74b8 f53a 275f 973c
000003e0: 423d d239 5c0f 323c ba3c c2bb b679 4d3c
000003f0: 883e dd3c 703e f53c 0211 673c d479 d03c
0.02077757 0.010781267 -0.018831871 0.003726048 -0.01129985 0.006244804 -0.00029341812 0.004551006
0.01768191 0.008565585 0.006185149 0.008138419 0.036067955 0.005051384 -0.0093745105 0.008233541
-0.0057204654 -0.0025229102 0.008715301 0.014455112 -0.0020029028 -0.016395858 0.012450719 0.01042212
0.0049672737 0.015832126 0.017528 0.009687131 0.0039119036 -0.007263074 0.0006710888 0.015496202
-0.00019899735 -0.0018827831 -0.00748384 0.02820668 0.0014437829 -0.032028772 -0.00790414 0.024233855
0.0143364305 0.024322757 0.028639767 0.009273353 0.016696675 -0.0057103867 0.008415083 -0.0005341003
0.0045496593 0.041699223 0.0010419342 0.027440641 0.012052602 0.0033824681 0.024559675 -0.01889574
0.010956558 0.011914427 0.0074626487 0.012155515 -0.0018804286 0.0078788 0.007337973 0.023886114
0.0028375916 0.013750549 -0.005490331 0.0101805 0.008906331 0.001460097 0.0053722714 0.0015376079
0.021592543 -0.073079586 -0.010942046 0.0010482016 -0.0059304032 -0.018214816 0.004787682 0.0013236909
0.013147924 0.014805159 0.009080122 -0.0013168926 0.01380972 0.0030346552 -0.02236772 0.011594592
0.032121018 0.0065044356 -0.0051637427 0.001099767 -0.007035934 0.00864421 0.010804487 0.0003694241
0.00811236 -0.01427261 0.012106954 0.009666452 -0.008350763 -0.015080093 -0.024962517 -0.0025320621
-0.0029990403 -0.011882453 0.01872286 -0.0004298323 0.008822352 0.009774021 0.035278138 -0.0050514163
1.1854826e-05 0.027276209 -0.013863377 0.023273125 -0.014971837 -0.004656698 0.009080705 0.017430075
-0.009402775 0.017581021 0.006963617 0.0004988907 -0.002689673 0.0045762784 0.016217036 0.01161304
0.024493262 0.0055511836 0.0011843188 0.03278958 0.00015756402 0.0017019068 0.014440898 0.004410493
0.005979028 -0.02540757 0.013447014 -0.0035123636 0.016727176 -0.005335756 0.016204555 -0.023395725
-0.0026421098 0.0013299382 0.013318645 0.018134316 0.017685866 0.003860029 0.007975055 0.00442363
0.007993999 0.027523205 0.020475913 0.018689046 -0.002947714 0.014533107 0.0018348441 -0.0005787871
0.004532922 0.0013088258 -0.0012662959 -0.00988459 0.006816317 -0.0026994126 0.0037201077 0.004536354
0.021660779 0.0015205054 0.017249923 -0.00429551 -0.024171403 0.0031835434 0.015315382 -0.0034000773
0.022854922 0.014190359 0.024899922 0.0038052278 -0.0063581113 -0.00089912437 0.0031442412 0.009877427
-0.010914541 -0.0032443644 0.022181513 -0.01704657 0.011534836 -0.02342626 0.007913636 0.016798299
0.015386484 0.030685682 0.01158759 0.009881773 0.013544901 -0.006067895 0.0063253194 0.012467322
-0.0060063945 0.0038012185 0.025761584 0.024100896 0.0056532146 0.010138719 -1.2369233e-05 0.008049474
0.025398824 0.0156095745 0.017386328 0.0049468004 0.02118482 0.027270237 -0.0028701406 -0.001512658
0.0009084898 0.01104949 0.025010807 -0.0207422 0.011709204 0.013476076 -0.00045966692 -0.0077870237
0.02484041 0.0013576272 0.016950483 0.022168444 0.003961809 0.016693162 0.00788246 0.016005078
0.02216504 -0.0062271445 -0.011951901 0.00031823287 0.020094087 -0.0015590957 0.011415103 -0.02129026
0.014713299 -0.00883212 -0.012119882 0.012084509 -0.0023234584 -0.008614605 0.0018746988 0.01847799
0.00040099962 0.01086792 -0.0059276493 0.012541225 0.027007356 0.029937 0.014103176 0.025448717

network_body._body_endoder.seq_layers.2.weight f4 [256, 256]
00000000: ca2a 7a3d ee79 ea3d 1aa7 4bbd 2e6b 94bd
00000010: 5844 0dbd 0d3d 833d 3e6c 073e d77a 76bd
00000020: 679a aa3c bbcf 883d 8b21 f63d 9e37 d43d
00000030: 2135 20be fb5d 5abd a4f7 e33c 0061 ecbd
00000040: e33d 9fbc 5d58 c5bd 57f4 903c 5ca1 b9bb
00000050: 2d78 50bc 51e3 b5bd 7e9f 753d c5c7 82bd
00000060: 392c 9bbd be59 f03c fea4 81bc eb31 893d
00000070: e9a4 adbc e0db 1fbc cabd 203d a0c8 953b
00000080: fb25 ac3d 811a dabd 41c9 40bb 4720 173e
00000090: 38d4 43bd 7548 753d 66e9 6d3d 3c2a f23d
000000a0: ad06 953d 2f73 333e 3dca 313d 62cc 4d3e
000000b0: 8cf9 2ebd c705 ebbd 55c7 b5bd 1631 48be
000000c0: f8c9 2abc 5254 d93c ada5 713d d32b 1d3d
000000d0: ef28 313e 3115 283c 15a4 e33d 701e 3d3d
000000e0: 8221 a3bd 11ac 4b3d 88a8 bebc 94bc 88bd
000000f0: 7349 313d 5df7 b93d c707 c3bc 07de 78bb
00000100: 5288 02bd 0714 31bc 0b3b d4bd d35b a43d
00000110: a64d d83d c725 75bd 0539 253c d3fd da3c
00000120: 03bc 86bd e94d 9dbc edb6 653d 6208 debc
00000130: b83b 2e3d 9d06 26bd d251 d6bc b426 3d3d
00000140: 6c47 a33d 14b4 e53d de74 95bd e410 14bd
00000150: 3513 6d3d 709b 90bd 83f4 1dbd e2d8 843d
00000160: 019b 393d 0031 013d 84e3 143d 5d8c 3eb8
00000170: 5fb6 173e 69e2 163d 5dc6 9dbc afe8 ae3c
00000180: 5152 c73d 022b 253d 83fe f63b ca06 b9bd
00000190: 3c30 51bd 91c2 f13c a71d babd ab12 e0bc
000001a0: a91c aa3c a868 15be 8a58 4a3e 76c9 8abd
000001b0: 5da7 b73d 9d40 debd f096 703d e755 41bd
000001c0: 79c0 d3bc e92f 6f3d 67b1 09be 4f3f 00be
000001d0: 9d9a f3bd 67f0 383d 4f61 d03d 83ba fb3d
000001e0: 564c 35be 1c2a eb3d 2fe5 e0bc 6d80 2d3d
000001f0: 52d9 25be a2d8 64bd 77d6 a03d 3d34 853d
00000200: 97b9 72bd 0701 4abd fcf5 d43c dfd0 d33c
00000210: 6d30 65bd 7086 2cbe 87af cc3c 0d83 a1bd
00000220: 5952 39be c17d e0bd 1119 9abc 3d31 ddbd
00000230: bd5d 65bc 02f4 883d 7e33 b6bd 1549 a93d
00000240: 87cf fbbd e2c4 283d c096 4b3d c06b 65bc
00000250: f565 1dbe cb2d 7a3d d9b7 ab3c 5813 573d
00000260: def5 d8bd c6c5 c13c dc77 45bd a9db e13d
00000270: 1372 e3bd c09f 30bd 5c37 cb3c 9a7c d53d
00000280: 6d99 ea3c f7c4 d33c f677 a13d 10b7 cd3d
00000290: deb6 923d ba58 373c 6bf2 1b3d 87f6 7c3d
000002a0: 0c43 22bb dfad ddbd 2a62 8dbd 2702 fb3b
000002b0: 1987 053d b6a2 d1bc 8762 1a3d aaba 88bd
000002c0: 1dea fa3c c46b 15be dd29 3a3d 3abf 1f3e
000002d0: 6fb7 e9bc e61f 13bd 9a8e 01bc 42d9 99bd
000002e0: 5328 943d d382 aebb efbb 0c3e 325c ab3d
000002f0: 6aad c23c 7f1c 563d f148 103d 34fc 433d
00000300: 15dd 523c 7b24 0ebd 2d85 e03b c0dd a43c
00000310: a1ce 01bc 7058 323c 4564 61bb 1375 333e
00000320: 132d 82bd 153a 94bd f4f3 e73c c5a3 c93c
00000330: 7b60 973c 2d8b 8abd a935 cebc 8b1b c5bd
00000340: a7eb c23d 0535 723d 890d 14be c683 a8bc
00000350: f79e 4ebd 03f3 533e 5c68 30bd 353c 1c3e
00000360: 5e36 0abe 3654 ce3c b979 abbd 0e06 18bd
00000370: 4a7d e23d 99d6 0b3d e95f 07bd b0fa 883d
00000380: b8b5 cbbd 94cb 31bc 209e 2fbc 9adb a1bc
00000390: b2c0 9abd b92f 77bc 4567 773c 5ecb bebc
000003a0: e1cd 5a3d 08f2 febd 570e 24be 3aba afbc
000003b0: 1d40 89bd e846 503c e0b3 ffbd 8443 98bd
000003c0: c96e 15bc 366f cb3d 3f79 6abb 1ea4 d53c
000003d0: ff01 9a3d b89c 023d 786e 0f3d 9242 243d
000003e0: 1707 a7bd c164 033d 4cc9 d6bc 529e 223d
000003f0: 69cc 453d db49 643c de60 cf3d 1f0e 753d
0.061075963 0.114490375 -0.049719907 -0.072470054 -0.034489006 0.06408129 0.13224885 -0.060175743
0.020825578 0.066802464 0.120181166 0.10362171 -0.15645267 -0.053312283 0.027828045 -0.11541939
-0.01943869 -0.096359946 0.017694635 -0.0056649875 -0.012723965 -0.08881248 0.059966557 -0.06385759
-0.07576794 0.029339667 -0.015825745 0.06698974 -0.0211968 -0.009757012 0.039243497 0.0045710355
0.08405682 -0.106495865 -0.0029416832 0.14758407 -0.04780981 0.059883554 0.058083914 0.11824462
0.07276664 0.17524408 0.04340576 0.20097497 -0.042718455 -0.11475711 -0.0887591 -0.19549975
-0.01042413 0.026529465 0.05899589 0.038371872 0.17300771 0.010258959 0.111152805 0.046171606
-0.079653755 0.049724642 -0.023273721 -0.066765934 0.043282937 0.09080384 -0.02380742 -0.0037974135
-0.031868286 -0.010807998 -0.10362824 0.080253266 0.10561685 -0.05985048 0.010084395 0.026732361
-0.06578829 -0.01920219 0.056082655 -0.027103607 0.04253742 -0.04053365 -0.026162062 0.04617949
0.07972607 0.11215988 -0.07297681 -0.03614892 0.057879645 -0.07060897 -0.038563263 0.064866796
0.04531384 0.03154087 0.03634979 -4.5430254e-05 0.14815663 0.036837015 -0.019259626 0.021351187
0.097324975 0.04032422 0.0075376644 -0.09034498 -0.05107139 0.029511722 -0.09087687 -0.027352652
0.02076562 -0.14590704 0.19760337 -0.06776707 0.08967469 -0.10852168 0.058737695 -0.047201063
-0.025848614 0.0583953 -0.1344658 -0.1252415 -0.118947245 0.04515114 0.1017481 0.12291434
-0.17704901 0.11482641 -0.027453033 0.042358804 -0.16196182 -0.05587066 0.07853406 0.06504104
-0.059259024 -0.049317386 0.0259962 0.025856433 -0.055954386 -0.16848159 0.024986042 -0.07886324
-0.1809782 -0.10961486 -0.01881078 -0.10800407 -0.0139994 0.06687166 -0.0889654 0.082658924
-0.12295442 0.041203387 0.049704313 -0.01400274 -0.15370925 0.061078828 0.020961689 0.052508682
-0.105937704 0.023653876 -0.04821001 0.11028225 -0.11105742 -0.0431211 0.02480667 0.104241565
0.028637612 0.025850756 0.07884209 0.10044682 0.071637854 0.011190588 0.038072985 0.061758544
-0.0024759201 -0.10824179 -0.06903489 0.0076601687 0.032599542 -0.025590282 0.03769162 -0.06676228
0.030629212 -0.1459189 0.04545008 0.15600291 -0.02852985 -0.035919093 -0.007907534 -0.07512142
0.07234254 -0.005325654 0.13743566 0.08367194 0.02376433 0.05227327 0.035225812 0.04784794
0.012870093 -0.03470276 0.0068518133 0.02012527 -0.007922799 0.010885343 -0.003439204 0.17525129
-0.063562535 -0.07237641 0.028314568 0.024614224 0.018478623 -0.06764827 -0.025172072 -0.09624394
0.09517603 0.059132595 -0.14458288 -0.020570647 -0.05044457 0.2069817 -0.043068275 0.15257342
-0.13497302 0.02518664 -0.08372826 -0.03711515 0.11059053 0.034140203 -0.03305045 0.0668844
-0.099467695 -0.010851759 -0.010718852 -0.019758034 -0.07556285 -0.015087062 0.015100305 -0.023290332
0.053418998 -0.124485075 -0.16021095 -0.021451104 -0.06701682 0.012712218 -0.1248548 -0.074347526
-0.0091206515 0.09933321 -0.0035777835 0.026079234 0.07519912 0.03188774 0.03501746 0.04010255
-0.08155649 0.03207851 -0.026219033 0.039701767 0.048290644 0.013933624 0.10125898 0.05982792

network_body._body_endoder.seq_layers.2.bias f4 [256]
00000000: 6ebe c23c 3563 fd3c 99cb 0d3c 75de 033d
00000010: 4108 07bc f5dc 74bc f950 84bb 01ae a03c
00000020: 8df5 7f3c 3e96 fe3a a4a6 bcbb 6092 16bb
00000030: 57e3 0a3d 8ac9 0a3c 9a9c 013c b2b4 8a3b
00000040: fa61 69bc d3d4 8e3c 989e 323b aaa3 ee3b
00000050: 44bc bd3b c16a cb3c 0502 f03c 4dcf 863b
00000060: a7d5 54bc a32f 68bc 0558 513b 681d 50ba
00000070: 3517 9abc 7292 f73b 1ccf 9f3b a28c d6bc
00000080: 18c7 e83c e88f dcbb bf82 ef3a 641a 7bbb
00000090: c9f5 603c 6351 db3b 1d71 313c 3c3a b43c
000000a0: 9414 cbbc 7355 d53c b246 053c 1bfd 3abc
000000b0: 0f95 b33c 6ca7 013d f8a3 46bc 88c3 e23b
000000c0: 8c27 0e3d 1abc c4bc 75fc 973c 6161 37bc
000000d0: a374 853c 33f5 3d3c 73a2 8c3c 6bbe 933c
000000e0: 50e3 203d c1c9 f73c 7cf1 0b3c bf7f d33a
000000f0: 7bd8 2f3c 5204 21bc 210c 2d3d 86a9 623c
00000100: 00f0 7d3c 1ba0 f13c 3687 d63c c88d e03c
00000110: a662 f5ba ae89 a6bc 7941 783c 4372 1b3b
00000120: 4757 df3b d7f4 a03c 893f 323b 81c9 5ab9
00000130: 3dbe 90bc 71a3 783b 19b9 113c 03fb 37bc
00000140: 6b95 223c 6d41 ad3c 8f44 b73c 0d7b 393d
00000150: 34da c43b 715f 223c 8c47 9bba 6a8a a33b
00000160: 235b c03a 6cd2 103d 9dad c5bb 96a0 413d
00000170: 6f50 ae3b 5ac9 7f3c cc90 ce3c 35c1 ec3c
00000180: 812c 533d eddf 7d3c 0171 5d3b 6424 3b3c
00000190: d454 d53c 5d4f b13c 2e82 013d 65c7 2a3c
000001a0: dc55 063c 8919 b03c 99a9 cf3c 794d b3bc
000001b0: 54c6 003d 5ab3 01bc 2fe7 b63c 50e5 213b
000001c0: 5b32 493c 5675 103d b01b 7e3c 51bc 193b
000001d0: 805a c93c d941 483c a018 9d3c 92c0 853b
000001e0: 1d28 1f39 61ef f4bb 7c22 8f3c 6cc9 e83b
000001f0: 852e 1a3c 4cac 9e3c 37af 353b 3dc7 273b
00000200: 00a4 b0bb edf2 23bb 254f b3bb da38 8b3c
00000210: 57e1 003d c0d8 3c3d e1ae e33c ac1d 533c
00000220: 2799 f7bc c482 1fbd c40c 00bd 6977 643b
00000230: 22be ff3c 24c0 89b9 7189 ef3c 1c26 993a
00000240: 3417 a23b f31f 5c3c 05e8 b13c 3db5 a33c
00000250: 5147 f53c 414c 1a3b f379 e73c de23 a33c
00000260: b778 3e3c 991a 553c b572 f7b9 3051 ad3c
00000270: 3e0d 2e3c 1572 973c 167c 99bc 0680 443c
00000280: 0fd1 5c3c 84fd 343c e457 cabb 186f e33c
00000290: 779d f03c a5c1 dc3c ffad 7dbc 5c5c 0bbc
000002a0: b0a4 54bc 8f30 c33c a527 9cbc 3850 3b3c
000002b0: 4c0b 753c 2b91 fe39 9507 443c 9a5d 203d
000002c0: 67b5 c33c 6a89 813b 5056 b33c 855e 8f3c
000002d0: 7df8 b4ba c287 d23c ef9e 2c3d da63 e23c
000002e0: bf28 423d 031c 20bc f60b 303d f08d 903b
000002f0: 685c c9bc d5f9 3e3c 1f9d 0a3d 3d8e 5b3d
00000300: 5ede d33c afaf 2e3c f02f d53c e96c 8b3a
00000310: 0f10 963c 99a6 843c 91f3 a93c 24f6 873c
00000320: 92ca 743c 153f a33c 5ae4 43bc 9f2a 0e3c
00000330: e797 073c ea0b babb 8b01 febb e5d1 9c3b
00000340: 5529 c33b 57c1 8a3b d790 903c 2ea6 693c
00000350: 4d3c 8b3b b7ef 913c 48a8 703c 5aaf d6bc
00000360: d5a4 d43c 8f45 c43c ae21 003c 40e7 83bb
00000370: 8381 83bb 3ffa 8b3c 596f 083d 0d6a 523c
00000380: 943b bdbb 26b4 6b3c 0011 443d 997c c33c
00000390: fbad 743b 970c 9c3b 506a a73c c121 443c
000003a0: 66f7 d43c 11c3 29bc e655 993c fd17 373c
000003b0: 357a 2b3d 3e25 343c 4af4 d63c 9f2b e7bc
000003c0: f7d1 6f3a 358a b13c 795b 58bc 3c15 d1bb
000003d0: 4a6a 943c 2351 613c ac9b 933c 3ed3 5c3b
000003e0: bb68 513d 980f 923c 8110 ee3b 67c1 cf3c
000003f0: 5af4 543c 1325 8fbc 4063 6d3c e9ac 9dbc
0.023772445 0.030931095 0.0086544985 0.032194573 -0.008241714 -0.014945258 -0.004037973 0.019614222
0.015622509 0.0019423438 -0.00575717 -0.002297543 0.033908214 0.008470902 0.007910872 0.0042329663
-0.014244551 0.017435467 0.0027255174 0.007282694 0.0057902653 0.024831178 0.029297838 0.0041140676
-0.012990392 -0.014171514 0.0031943333 -0.0007938952 -0.018809894 0.0075552994 0.0048769843 -0.026190106
0.028415248 -0.006731022 0.0018273218 -0.003831529 0.013730475 0.0066930517 0.010830191 0.022000425
-0.024790086 0.026041722 0.008134531 -0.011412884 0.021921663 0.031653807 -0.012124054 0.006920282
0.034705684 -0.024015475 0.018552998 -0.0111926505 0.016290968 0.011594105 0.017167306 0.018035134
0.039279282 0.030247571 0.008541461 0.0016136094 0.010732765 -0.00982769 0.042247895 0.013834363
0.015499115 0.02949529 0.02618752 0.027411357 -0.0018721416 -0.020329323 0.015152329 0.0023719228
0.006815824 0.019647999 0.0027198514 -0.00020865166 -0.017668838 0.0037939216 0.008894228 -0.011229279
0.009923319 0.021149362 0.022371558 0.045283366 0.006007457 0.00991045 -0.0011846884 0.0049908655
0.0014675598 0.035356924 -0.006032659 0.047272287 0.005319647 0.015611971 0.025215529 0.028900722
0.051556114 0.015495283 0.003378928 0.01142225 0.026041426 0.021644289 0.03161829 0.010423516
0.008199181 0.021496551 0.025349425 -0.021887528 0.03143914 -0.007916296 0.022327034 0.0024703331
0.012280072 0.03526815 0.015509531 0.0023458193 0.024579287 0.012222731 0.019176781 0.004081794
0.00015178365 -0.0074748253 0.017472498 0.0071040895 0.009410505 0.019369267 0.0027722844 0.0025600933
-0.005390644 -0.0025016621 -0.0054720812 0.016994882 0.0314649 0.046105146 0.02779335 0.012885492
-0.030224396 -0.038943067 -0.031262174 0.0034861213 0.031218592 -0.00026273832 0.029240342 0.0011684331
0.0049466137 0.013435352 0.02171708 0.019983882 0.029941233 0.0023543986 0.028256392 0.019914564
0.01162546 0.01300683 -0.00047196975 0.021156877 0.010623274 0.018487016 -0.018735927 0.011993414
0.013477578 0.011046771 -0.006175028 0.027762935 0.02937196 0.026947806 -0.015483378 -0.008505907
-0.012978718 0.023826865 -0.019061873 0.0114327 0.014956307 0.00048554814 0.011964698 0.039151765
0.02389021 0.0039531486 0.021891743 0.017501125 -0.0013806965 0.0256995 0.04214376 0.027635504
0.04740214 -0.0097723035 0.042980157 0.0044114515 -0.024580196 0.011656244 0.03384125 0.053602446
0.025862869 0.010662003 0.026023835 0.0010637316 0.018318204 0.016192721 0.020746024 0.016596861
0.014940875 0.01992754 -0.011956299 0.008677154 0.008275962 -0.00567769 -0.007751649 0.0047857636
0.005955855 0.0042344737 0.01764719 0.014260812 0.004249132 0.0178145 0.014688559 -0.026206661
0.025957504 0.02395895 0.00782053 -0.00402537 -0.0040132417 0.0170871 0.033309314 0.012842667
-0.0057749245 0.014386212 0.047867775 0.023863124 0.0037335146 0.004762243 0.020436436 0.011970938
0.025996875 -0.010361449 0.018717717 0.011175153 0.041864593 0.010995207 0.026239533 -0.028219042
0.00091484137 0.021672348 -0.0132054025 -0.006380705 0.018117089 0.013752255 0.018018566 0.0033695246
0.05112527 0.017829701 0.007265151 0.025360776 0.012997711 -0.017473733 0.014488995 -0.019247489

action_model._discrete_distribution.branches.0.weight f4 [7, 256]
00000000: 0f69 79bd 4c92 8fbd 17f0 4b3c ee8e 933b
00000010: 097e de3c 9306 a63b 0fbb 34ba 77b4 7abc
00000020: 9066 7dbd 1e49 eebc 64b0 a6bc 86a6 683c
00000030: d89c 8b3c 1c99 82bc 31a3 163c 25a9 0bbc
00000040: 5a4b 12bd f52e 1f3b 24e3 4bbd 4c92 993b
00000050: ad68 65bc e7fe a2bd cfa2 053d 834c c8bc
00000060: 6d26 273d d0e0 8a3c 1279 d6bc e59c e63c
00000070: 0262 e03c d7fb 1ebc 04d8 17bd 960e 7e3b
00000080: b888 c03b d39d 5cbb 38ca 2d3a 2def 2bbc
00000090: cbcf aebc c167 72bd ed03 403c 4e75 47ba
000000a0: ed00 433c 7793 9abb c929 cbbc d442 9b3d
000000b0: 098b 6fbc d397 243b d603 393d 28c9 433c
000000c0: 2a3a a8bd 0c56 053d 489e 3c3b 336e c9bc
000000d0: 8b02 95bc 86b0 13bd 0782 6ebd 2f07 eabc
000000e0: 7a50 80bc 24ba ccbd 9e04 1f3c 4ab6 103c
000000f0: 92be aebc 4724 0cbd 02f2 95bc db9a e93b
00000100: 6159 64bb 732c a1bc 4416 07bd a11a 1b3b
00000110: 2649 e3bc 8890 d13a 6b22 eabc 43d7 2ebd
00000120: 5be0 f7bb 29d6 debc 5bc7 cc3c 1aa6 4ebd
00000130: 8882 913c 1ca1 93bc 2692 f53b c5cc dd3c
00000140: cb7a 52bd 9308 463c 11ef 763b 53de 5ebd
00000150: 6e85 67bc 8e6f cbbc 300f 363c 4eb1 62bd
00000160: 6457 05bd df07 0ebd 058e f9bb 7707 173b
00000170: 23fa 43bd 8e0c 2fbd 7b25 efbb 52e3 9abc
00000180: 7676 47bd e05e 43bd e0e0 01bc 622c a4ba
00000190: 9194 78bd b813 a3bd 37f1 a4bc bd40 9239
000001a0: 2aad 05bd b408 08bd 016c a8bc 8de8 d23c
000001b0: ba9b 32bd a456 42bd 11e3 21bd fb70 bebc
000001c0: f19a 9d3c b0e1 cf3c 190b 1dbd 54f3 c73c
000001d0: d5b8 55bc ae2e 713c c8a2 3f3b ab00 68bc
000001e0: b902 24bc c449 c13a 2b5c 83bc 85d7 aa3c
000001f0: cd41 d33b 26e3 5f3a 6dda 07bd ed88 6d3c
00000200: 53d1 0e3d 6fdd f83b 95a6 de3c 3e97 67bc
00000210: 59aa e5bc f242 d6bc ed00 52bd 2b8c 7cbb
00000220: 2a08 da3c 5c8c 1a3d d596 8e3c bd49 14bd
00000230: a30b e2bb abf2 e3ba f8ed 8d3b 1104 17bd
00000240: ae00 99bd 060e 57bc 3f31 7ebd 1a52 e0bc
00000250: 1f79 1ebc 295d 9c3b 2f45 3ebd 7713 71bd
00000260: 857f 30bd a3ba b23c 0dc7 863b ed11 183b
00000270: 0401 05bd b121 ccbb 5935 093b c89f a93c
00000280: a8a2 bdbc 055b 88bd 426e e0bb 92e5 c5bb
00000290: ee94 e4bc 9dc1 c8bc ca2c 8e3b dd5e 233d
000002a0: f495 22bc 3cd3 f1bb 4fdc 533c c289 d0bc
000002b0: 1412 25bd 8d7f b2bc 1354 2a3c d952 f8bc
000002c0: 066d f7bc 936a abbc ed3f 04bd 2b60 d2bc
000002d0: a97f 85bb c3d2 a2bd 2dbe ddbc 5a15 b8bc
000002e0: 0709 eebb ef6e 7ebb 458a 063b 94c3 bfbc
000002f0: 8c7f e23c 291f 8f3b a9c2 0cbd 72cd 91bd
00000300: eb37 8dbd 37e8 fbbc d137 02bc 5133 2dbd
00000310: b508 52bc 8700 34bc 7b07 a4bc ca5a 08bb
00000320: 3272 6fbb 90bb 59bd 9b35 f0bc 48e7 863b
00000330: 1edb f13c 947f 40bd a9eb b73c 2e93 6a3b
00000340: c1ef f2bc 8dff a8bc 3dca 173c 5d6b 69bc
00000350: 952b 093c b76c 3dbd 9bd4 3bbd d697 a93c
00000360: 0ff9 803c b7b4 943c df7d 55bd a506 7b3c
00000370: 3b50 023d 8466 993a 59fb 2dbd 7b17 6d3b
00000380: ba1c 91bc ddc7 853b ac90 abbc bd7d b3bb
00000390: 8bd1 ff3c b183 52bd f5b0 11bb 1a07 f6bc
000003a0: 9233 a5bd 0e10 2b3c 725d d23c 3b8c cc39
000003b0: 29bc 55bc 7e6f 1abd 653c fb3a 6a1f 0c3d
000003c0: 26a5 0cbd 95e6 01bd 24b5 a3bb 2e54 20bb
000003d0: e7ae 16bd 8589 8fbc 3970 08bd 3ec9 833d
000003e0: f357 94bc 4727 593b 1665 bcbc e77e 0ebc
000003f0: 2249 b43c f94b df3c 5ce6 ce3b 76c5 163d
-0.060891207 -0.07010326 0.012447379 0.0045031225 0.027159708 0.0050667017 -0.0006894329 -0.015301815
-0.06186539 -0.0290876 -0.020347781 0.0141998585 0.017042562 -0.015942149 0.009194181 -0.008524214
-0.035716392 0.0024289463 -0.049777165 0.0046866294 -0.014002007 -0.07958775 0.03262597 -0.024450546
0.04080813 0.016952902 -0.026180778 0.028150985 0.027390484 -0.009703598 -0.037071243 0.0038766018
0.005875673 -0.0033663407 0.0006629559 -0.010494036 -0.021339318 -0.05918098 0.011719686 -0.00076087273
0.011902076 -0.004717286 -0.024800198 0.07581106 -0.014620551 0.0025114908 0.045169674 0.011949815
-0.08214219 0.032552764 0.0028780866 -0.02458868 -0.01818969 -0.036057018 -0.058229472 -0.028567879
-0.015663374 -0.09996441 0.009705691 0.008832524 -0.021331105 -0.034214284 -0.018303875 0.007129056
-0.0034843313 -0.019674515 -0.03298022 0.0023666995 -0.02774484 0.0015988508 -0.028580865 -0.04268576
-0.007564587 -0.027201729 0.024997404 -0.050451376 0.017762437 -0.018021159 0.007494229 0.02707518
-0.051386636 0.012087005 0.0037679116 -0.054411244 -0.014130933 -0.024833467 0.011112019 -0.055344872
-0.032554045 -0.034675475 -0.007615807 0.002304522 -0.04784597 -0.042736582 -0.007298169 -0.018907223
-0.048696958 -0.0476979 -0.0079271495 -0.0012525434 -0.06068856 -0.079627454 -0.020134551 0.00027895524
-0.032635845 -0.033211425 -0.020559313 0.025745654 -0.043605544 -0.04744591 -0.039523188 -0.023247233
0.01923892 0.02537617 -0.03834066 0.02440802 -0.013044556 0.014720602 0.0029241312 -0.0141603155
-0.010010415 0.0014746715 -0.01603516 0.02085472 0.006447053 0.00085406227 -0.03316729 0.014497978
0.034867596 0.0075947563 0.027179042 -0.01413518 -0.02803533 -0.026154969 -0.051270414 -0.0038535695
0.026615221 0.037731513 0.017405907 -0.036203135 -0.00689836 -0.0017391046 0.0043313466 -0.036869112
-0.07470833 -0.013125902 -0.062058683 -0.0273829 -0.009672432 0.0047718477 -0.046452697 -0.058856454
-0.043090362 0.021817511 0.004113084 0.0023204044 -0.03247167 -0.0062296023 0.0020936339 0.020706072
-0.02314885 -0.066579856 -0.0068490813 -0.00603933 -0.027903046 -0.024506385 0.0043388354 0.03988539
-0.009923447 -0.0073799174 0.012930944 -0.025456313 -0.040300444 -0.021789337 0.010396021 -0.030312942
-0.030203354 -0.020924842 -0.032287527 -0.025680622 -0.004074056 -0.07950356 -0.027068222 -0.022471119
-0.0072642597 -0.0038823446 0.0020529192 -0.023408689 0.02764871 0.0043677283 -0.03436533 -0.07119264
-0.06895431 -0.030750377 -0.007947878 -0.042285267 -0.012819459 -0.010986454 -0.020023098 -0.0020806068
-0.0036536572 -0.05315739 -0.029322436 0.0041169263 0.029523429 -0.046996668 0.022451239 0.0035793292
-0.02965534 -0.020629669 0.009264526 -0.014246789 0.008372207 -0.046246257 -0.045857053 0.020702284
0.01574376 0.018152578 -0.052121993 0.015321408 0.031814795 0.0011703526 -0.042476032 0.0036177326
-0.017713893 0.0040826635 -0.020943008 -0.0054776357 0.031227848 -0.051395122 -0.0022230719 -0.030032683
-0.08066477 0.010440839 0.025679324 0.00039014392 -0.013045349 -0.037703983 0.0019167779 0.034209646
-0.034337185 -0.03171404 -0.004995959 -0.0024464238 -0.036787894 -0.01752163 -0.03331015 0.06434868
-0.018108344 0.0033134983 -0.02299742 -0.008697248 0.022007529 0.027257906 0.006314082 0.036809407

action_model._discrete_distribution.branches.0.bias f4 [7]
00000000: c05d d5bc 1b2d cebc 377f 093d 37df f9bb
00000010: a522 3c3c 21a2 23bd d990 fd3b
-0.02604568 -0.025167992 0.033568587 -0.0076254862 0.011482869 -0.03994954 0.0077382145
